…
.24s/it] 95%|  | 37/39 [51:54<02:30, 75.14s/it]100%|| 39/39 [54:10<00:00, 73.01s/it]100%|| 39/39 [54:11<00:00, 83.36s/it]
  0%|                                                     | 0/6 [00:00<?, ?it/s] 17%|                                    | 1/6 [02:55<14:35, 175.15s/it] 50%|                      | 3/6 [04:31<06:51, 137.05s/it] 67%|              | 4/6 [04:47<03:21, 100.71s/it] 83%|       | 5/6 [06:16<01:37, 97.34s/it]100%|| 6/6 [06:17<00:00, 68.30s/it]100%|| 6/6 [06:17<00:00, 62.96s/it]
Train 25310 clips
Test 2927 clips
Model:  Conv3dModel(
  (cnn_layers): Sequential(
    (0): Conv3d(3, 32, kernel_size=(5, 5, 5), stride=(2, 2, 2))
    (1): BatchNorm3d(32, eps=1e-05, momentum=0.1, affine=True, track_running_stats=True)
    (2): ReLU(inplace=True)
    (3): Dropout3d(p=0.2, inplace=False)
    (4): Conv3d(32, 64, kernel_size=(3, 3, 3), stride=(2, 2, 2))
    (5): BatchNorm3d(64, eps=1e-05, momentum=0.1, affine=True, track_running_stats=True)
    (6): ReLU(inplace=True)
    (7): MaxPool3d(kernel_size=2, stride=2, padding=0, dilation=1, ceil_mode=False)
    (8): Dropout3d(p=0.2, inplace=False)
  )
  (linear_layers): Sequential(
    (0): Linear(in_features=82560, out_features=256, bias=True)
    (1): ReLU(inplace=True)
    (2): Linear(in_features=256, out_features=128, bias=True)
    (3): ReLU(inplace=True)
    (4): Dropout3d(p=0.2, inplace=False)
    (5): Linear(in_features=128, out_features=4, bias=True)
  )
)
Traceback (most recent call last):
  File "main.py", line 110, in <module>
    train_losses, train_scores = train_one_epoch(model, device, train_loader, optimizer, epoch)
  File "/data/cs230-road-accidents/train.py", line 64, in train_one_epoch
    loss.backward()
  File "/home/ubuntu/anaconda3/lib/python3.6/site-packages/torch/tensor.py", line 195, in backward
…
s/it]100%|| 39/39 [46:35<00:00, 58.52s/it]100%|| 39/39 [46:36<00:00, 71.71s/it]
  0%|                                                                    | 0/6 [00:00<?, ?it/s] 17%|                                                 | 1/6 [02:17<11:28, 137.77s/it] 50%|                             | 3/6 [03:37<05:24, 108.33s/it] 67%|                    | 4/6 [03:52<02:40, 80.49s/it] 83%|          | 5/6 [05:08<01:19, 79.15s/it]100%|| 6/6 [05:11<00:00, 56.32s/it]100%|| 6/6 [05:12<00:00, 52.02s/it]
Train 25310 clips
Test 2927 clips
Model:  Conv3dModel(
  (cnn_layers): Sequential(
    (0): Conv3d(3, 32, kernel_size=(5, 5, 5), stride=(2, 2, 2))
    (1): BatchNorm3d(32, eps=1e-05, momentum=0.1, affine=True, track_running_stats=True)
    (2): ReLU(inplace=True)
    (3): Dropout3d(p=0.2, inplace=False)
    (4): Conv3d(32, 64, kernel_size=(3, 3, 3), stride=(2, 2, 2))
    (5): BatchNorm3d(64, eps=1e-05, momentum=0.1, affine=True, track_running_stats=True)
    (6): ReLU(inplace=True)
    (7): MaxPool3d(kernel_size=2, stride=2, padding=0, dilation=1, ceil_mode=False)
    (8): Dropout3d(p=0.2, inplace=False)
  )
  (linear_layers): Sequential(
    (0): Linear(in_features=10816, out_features=256, bias=True)
    (1): ReLU(inplace=True)
    (2): Linear(in_features=256, out_features=128, bias=True)
    (3): ReLU(inplace=True)
    (4): Dropout3d(p=0.2, inplace=False)
    (5): Linear(in_features=128, out_features=4, bias=True)
  )
)
Train Epoch: 1 [2000/25310 (8%)]        Loss: 1.159696, Accuracy Score: 40.75
Train Epoch: 1 [4000/25310 (16%)]       Loss: 1.207152, Accuracy Score: 41.95
Train Epoch: 1 [6000/25310 (24%)]       Loss: 1.175434, Accuracy Score: 43.02
Train Epoch: 1 [8000/25310 (31%)]       Loss: 1.149195, Accuracy Score: 43.64
Train Epoch: 1 [10000/25310 (39%)]      Loss: 1.065911, Accuracy Score: 44.28
…
