…
WARNING:py.warnings:/home/ubuntu/anaconda3/lib/python3.6/site-packages/torchvision/io/video.py:105: UserWarning: The pts_unit 'pts' gives wrong results and will be removed in a follow-up version. Please use pts_unit 'sec'.
  + "follow-up version. Please use pts_unit 'sec'."

 17%|                                    | 1/6 [02:29<12:27, 149.54s/it] 50%|                      | 3/6 [03:52<05:51, 117.18s/it] 67%|               | 4/6 [04:08<02:53, 86.62s/it] 83%|       | 5/6 [05:26<01:24, 84.15s/it]100%|| 6/6 [05:31<00:00, 60.42s/it]100%|| 6/6 [05:32<00:00, 55.35s/it]
Train 2176 clips
Test 241 clips
Model:  Conv3dModel(
  (cnn_layers): Sequential(
    (0): Conv3d(3, 32, kernel_size=(5, 5, 5), stride=(2, 2, 2))
    (1): BatchNorm3d(32, eps=1e-05, momentum=0.1, affine=True, track_running_stats=True)
    (2): ReLU(inplace=True)
    (3): Dropout3d(p=0.2, inplace=False)
    (4): Conv3d(32, 64, kernel_size=(3, 3, 3), stride=(2, 2, 2))
    (5): BatchNorm3d(64, eps=1e-05, momentum=0.1, affine=True, track_running_stats=True)
    (6): ReLU(inplace=True)
    (7): MaxPool3d(kernel_size=2, stride=2, padding=0, dilation=1, ceil_mode=False)
    (8): Dropout3d(p=0.2, inplace=False)
  )
  (linear_layers): Sequential(
    (0): Linear(in_features=55296, out_features=256, bias=True)
    (1): ReLU(inplace=True)
    (2): Linear(in_features=256, out_features=128, bias=True)
    (3): ReLU(inplace=True)
    (4): Dropout3d(p=0.2, inplace=False)
    (5): Linear(in_features=128, out_features=4, bias=True)
  )
)
WARNING:py.warnings:/home/ubuntu/anaconda3/lib/python3.6/site-packages/torchvision/io/video.py:105: UserWarning: The pts_unit 'pts' gives wrong results and will be removed in a follow-up version. Please use pts_unit 'sec'.
  + "follow-up version. Please use pts_unit 'sec'."

Train Epoch: 1 [100/2176 (5%)]  Loss: 0.995114, Accuracy Score: 30.00
…
WARNING:py.warnings:/home/ubuntu/anaconda3/lib/python3.6/site-packages/torchvision/io/video.py:105: UserWarning: The pts_unit 'pts' gives wrong results and will be removed in a follow-up version. Please use pts_unit 'sec'.
  + "follow-up version. Please use pts_unit 'sec'."

 17%|                                    | 1/6 [02:24<12:02, 144.40s/it] 50%|                      | 3/6 [03:47<05:40, 113.51s/it] 67%|               | 4/6 [04:01<02:47, 83.81s/it] 83%|       | 5/6 [05:21<01:22, 82.66s/it]100%|| 6/6 [05:22<00:00, 58.11s/it]100%|| 6/6 [05:22<00:00, 53.81s/it]
Train 2176 clips
Test 241 clips
Model:  Conv3dModel(
  (cnn_layers): Sequential(
    (0): Conv3d(3, 32, kernel_size=(5, 5, 5), stride=(2, 2, 2))
    (1): BatchNorm3d(32, eps=1e-05, momentum=0.1, affine=True, track_running_stats=True)
    (2): ReLU(inplace=True)
    (3): Dropout3d(p=0.2, inplace=False)
    (4): Conv3d(32, 64, kernel_size=(3, 3, 3), stride=(2, 2, 2))
    (5): BatchNorm3d(64, eps=1e-05, momentum=0.1, affine=True, track_running_stats=True)
    (6): ReLU(inplace=True)
    (7): MaxPool3d(kernel_size=2, stride=2, padding=0, dilation=1, ceil_mode=False)
    (8): Dropout3d(p=0.2, inplace=False)
  )
  (linear_layers): Sequential(
    (0): Linear(in_features=10816, out_features=256, bias=True)
    (1): ReLU(inplace=True)
    (2): Linear(in_features=256, out_features=128, bias=True)
    (3): ReLU(inplace=True)
    (4): Dropout3d(p=0.2, inplace=False)
    (5): Linear(in_features=128, out_features=4, bias=True)
  )
)
WARNING:py.warnings:/home/ubuntu/anaconda3/lib/python3.6/site-packages/torchvision/io/video.py:105: UserWarning: The pts_unit 'pts' gives wrong results and will be removed in a follow-up version. Please use pts_unit 'sec'.
  + "follow-up version. Please use pts_unit 'sec'."

^[[A^[[A^[[A^[[A^[[A^[[A^[[A^[[A^[[A                                    ^[[A    Train Epoch: 1 [200/2176 (9%)]  Loss: 1.225584, Accuracy Score: 40.00
…
